Discriminator_Model.pth (torch_old, 1649 bytes, 5 tensors)

map1.weight f4 [10, 2]
00000000: 572b 90bf a906 e33e cc5e 463f cbeb 0540
00000010: d985 8cbf 19a9 d4bf d599 953e 8a91 a73e
00000020: c85d 69bf 1ba6 70be 6e6e bebf 4cc7 24c0
00000030: f5c2 8d3f 2bb5 0e40 cf07 62bf 63cd 8dbf
00000040: 4587 843f b109 3140 46da 44bf 7f62 c3bf
-1.1263226 0.4434102 0.774884 2.0925167 -1.0978347 -1.6614105 0.29218927 0.32728225
-0.91158724 -0.23500864 -1.487745 -2.574664 1.1075121 2.2298076 -0.88293165 -1.1078304
1.0353781 2.7662165 -0.7689556 -1.5264434

map1.bias f4 [10]
00000000: 6338 fdbd 68d6 ecbe e149 f13d 2067 65bf
00000010: f607 09bf 9dd1 c73f 8400 7fbf d014 babe
00000020: 343c 8cbf 406b 29bf
-0.123642705 -0.4625733 0.117816694 -0.8961048 -0.5352777 1.5610844 -0.9961016 -0.36344004
-1.0955873 -0.66179276

map2.weight f4 [10, 10]
00000000: 04c8 193f 94d0 5fbf 20b3 9c3f a827 8cbc
00000010: c717 6f3e b375 0d40 3916 a8bf 065c 0e3f
00000020: 8ac1 dcbf 1c74 4e3f c38d 44bc 4a77 d03e
00000030: 4343 07bf e2d0 23bf 387e 21bd c1ba 8abf
00000040: 6737 1e3f bbd8 26be 9351 643f 1b79 08bf
00000050: 86ab b73e 169b 0cbe b768 9f3e 9d4d 8d3f
00000060: 5342 273e a51d 523f 4819 07bf 328c ec3e
00000070: 3481 1ebf 71e1 183f 4bac cabe 0c0e 3c3f
00000080: 4f81 92bf b15a f53d a0bd e5be 52f7 02c0
00000090: 3e25 953f 20ca 4dbf 80da a53f 8380 1ebf
000000a0: 47f5 a6be 5547 073f 4dea e53b 2138 5fbe
000000b0: 4f3f 1c3e 6ec2 5abf 2249 e73c 5b84 14be
000000c0: 27ec c03e 4a57 b9be 647d fc3d 36e9 b33e
000000d0: 806f a3be 0296 b13d b20e 403e 7eaf 87be
000000e0: e985 b9bc 829d b3be de3a 803e 9b56 adbe
000000f0: c4ab 0abe 7eeb ea3e 71f9 29bf 1c2c 7ebe
00000100: 249c a4be 79c5 89bf b652 203f 1bec 6bbe
00000110: 50e6 473f 83ab 19bf e249 8dbe 6e9d 9f3e
00000120: 5222 783d 0ebf c53e a9ff 443e 36eb 6a3e
00000130: 97d3 1c3e b4d1 b13d 948c 623c 456a 94be
00000140: 40c9 84be 2868 bd3e dc75 0dbf ea72 323e
00000150: cd31 d6bd ce61 91be 1eb2 8d3e da89 f13c
00000160: e661 d53e 5298 babc 6b8c 633e 2f32 bcbd
00000170: 16cc 003f e48e 053f 6e69 1abe c023 6f3f
00000180: a0ca 503e a006 0dbe e5c3 54be 0a69 823e
0.60070825 -0.8742764 1.2242165 -0.017108753 0.23348914 2.2103088 -1.3131782 0.55609167
-1.7246563 0.8064592 -0.011996689 0.4071601 -0.5283701 -0.63990605 -0.039427012 -1.0838243
0.6180329 -0.16293614 0.8918697 -0.5330979 0.3587305 -0.13731036 0.3113458 1.1039311
0.16333894 0.82076484 -0.5277295 0.4620071 -0.619159 0.59718996 -0.39584574 0.73458934
-1.1445712 0.11980189 -0.44871235 -2.0463452 1.165199 -0.80386543 1.2957306 -0.61914843
-0.32609007 0.5284322 0.007016456 -0.21798755 0.15258525 -0.85452926 0.028233115 -0.14503615
0.3768017 -0.3619941 0.12328604 0.35138863 -0.31921005 0.0867119 0.18755606 -0.26501077
-0.022646861 -0.35081106 0.25044912 -0.33855137 -0.13542086 0.4588279 -0.6639624 -0.24821514
-0.32150376 -1.0763389 0.62626207 -0.23039286 0.78085804 -0.6002733 -0.2759543 0.31174797
0.060579605 0.38622326 0.19238152 0.22941288 0.1531509 0.08682576 0.013827462 -0.28987327
-0.25934792 0.36993527 -0.55257964 0.17426649 -0.104587175 -0.28394932 0.27674955 0.029484678
0.41676253 -0.02277771 0.22221534 -0.09189259 0.5031141 0.5217116 -0.1507928 0.93413925
0.20389795 -0.13772058 -0.20777853 0.25470763

map2.bias f4 [10]
00000000: 251c 273f 965c 27bf e553 493f 826f c7be
00000010: a26c bdbe 98dd 363e ffc2 13bf 3266 1d3e
00000020: 65d6 81be 03b3 313e
0.6527732 -0.6537565 0.7864364 -0.3895226 -0.36996943 0.17857969 -0.57719415 0.15371016
-0.25358883 0.17353444

map3.weight f4 [1, 10]
00000000: b4ca 94c0 d89c b23f cce2 23c0 9005 3540
00000010: c877 f73e 27b0 33be 9449 a63f f0cb 4cbf
00000020: 4ff7 443d 2f3a d8bf
-4.649744 1.3954115 -2.5607176 2.8284645 0.48333573 -0.17547666 1.2991204 -0.79998684
0.048087414 -1.6892756
