Generator_Model.pth (torch_old, 1229 bytes, 5 tensors)

map1.weight f4 [5, 1]
00000000: 05c8 963e fa9d 553f ba14 2dbf f8f1 433f
00000010: 3a69 4bbf
0.29449478 0.8344418 -0.6760975 0.7654109 -0.7945744

map1.bias f4 [5]
00000000: ad43 0ec0 719b 7dbf 01de 0e3f 1e76 10bf
00000010: 3617 8f3e
-2.2228806 -0.9906531 0.558075 -0.5643023 0.27947396

map2.weight f4 [5, 5]
00000000: a919 533d 4c26 093f 7203 963d 4ad1 1fbe
00000010: f6ce 6b3d 3b78 edbf 2dfc 843e 47e9 7cbd
00000020: 590d 2f3e 9f7a 17bf ef4d a2bf 8d31 763e
00000030: e4f8 083e 68d2 63be 63ab 4a3e 7d6f 9f3f
00000040: 249f 5cbd 92e7 9abe aa26 9b3d b96d a6be
00000050: e865 05bf 4d96 ecbd 0559 9fbd 6b0a 683e
00000060: 446a 92be
0.051538143 0.5357406 0.07324876 -0.15607181 0.05757042 -1.8552316 0.25973645 -0.061745908
0.17094935 -0.5917148 -1.2680033 0.2404234 0.13376194 -0.22248232 0.19791941 1.2455899
-0.053862706 -0.302548 0.07575734 -0.32505587 -0.5210862 -0.11552105 -0.07780651 0.22660224
-0.285967

map2.bias f4 [5]
00000000: 7fae d33d 9267 23be fdfc 4bbe fe5b 25be
00000010: 7258 c5be
0.10336017 -0.15957478 -0.19920726 -0.16148373 -0.3854404

map3.weight f4 [1, 5]
00000000: d361 013e 5ec1 05c0 4f19 b3bf 6ba0 ab3f
00000010: d993 d1be
0.12634973 -2.0899272 -1.3992099 1.3408331 -0.4093311
